trained_models/ffnn_pglib_opf_case30_ieee_best.pt (torch, 147253 bytes, 6 tensors)

net.0.weight f4 [200, 42]
000000 13 c4 db 3d fe 0a f2 bd bf cb 1d 3e 25 87 41 bd
       0.107307576 -0.11818503 0.15409754 -0.047248024
000010 ce f5 f8 bd 1c 10 92 3d 81 ac 7e bd d4 29 9d 3b
       -0.121562585 0.07131979 -0.06217623 0.004796246
000020 0c 37 87 3d ec b0 13 be d0 97 34 bd 8c 15 07 3e
       0.06602296 -0.14422959 -0.044090092 0.13191813
000030 83 bb 9b 3b 0d df a5 ba f8 58 fe 3c 48 3f 0f be
       0.0047525777 -0.0012654975 0.031048283 -0.13988984
000040 cf 36 28 3d 44 6a bd bd 89 c5 06 bd c9 00 8b bd
       0.041067895 -0.09248784 -0.032903228 -0.06787259
000050 be 3b 2c 3d 6b b3 66 bd 03 28 87 3d 81 9e e9 3d
       0.042049162 -0.05632345 0.065994285 0.11407185
000060 00 85 f9 3d f7 79 aa 3d b8 56 d6 bd 35 70 c5 3d
       0.12183571 0.08324044 -0.10465759 0.096405424
000070 22 d2 8c bd 26 4a b5 3d f0 92 95 3d e2 24 9c 3d
       -0.06876017 0.08852033 0.07303417 0.07624222
000080 17 ec d0 3d 19 df 9d bc 17 73 e8 bb 90 55 42 bd
       0.102012806 -0.01927142 -0.007093798 -0.04744488
000090 43 d9 9e 3c 9b 81 a7 3d dd eb 3a bc 77 ca b9 bb
       0.019390708 0.08179017 -0.011408773 -0.0056698876
0000a0 2b 6a 72 3d d3 ce 85 bd ff 5e b9 bd ab b6 7e bd
       0.05918328 -0.06533589 -0.09051322 -0.062185925
0000b0 99 0b 0c 3e de 18 47 3c 39 27 18 3e f3 2a be 3d
       0.13676299 0.012151925 0.14858712 0.09285536
0000c0 a1 c5 a5 3d dc d7 69 bd 7a f1 19 be 1b c3 03 be
       0.08094335 -0.057090625 -0.15033522 -0.12867396
0000d0 e0 06 c3 3d ee 03 91 3d 89 2f e8 3d f3 4f b9 bc
       0.09522796 0.07080828 0.113371916 -0.02262113
0000e0 be 18 ac 3d 7d 6a 5d bc 5e 33 13 bd cf 12 30 bd
       0.08403157 -0.013514158 -0.03593766 -0.042986687
0000f0 51 23 9f bd 2e 0f 44 3c 15 85 51 3a 7b 36 cc bc
       -0.07770408 0.01196651 0.0007992548 -0.024928322
000100 c2 61 ac bc 05 98 ee 3d 15 b8 06 3e 8e 1e 03 3d
       -0.021042708 0.11650089 0.13156159 0.03201156
000110 fd 43 fa bd 7a a7 87 bd e4 78 26 3c fc 84 06 3e
       -0.12219999 -0.066237405 0.0101606585 0.13136667
000120 91 c3 eb bc 60 15 1c bd 45 23 38 bd bc 7e 17 be
       -0.028779777 -0.038106322 -0.04495551 -0.14794439
000130 69 e1 f5 3d 53 39 8d 3d 71 1f f8 3b 3b 8a 4a bd
       0.12005884 0.06895699 0.0075721075 -0.049448233
000140 25 0a 05 3d a6 c2 92 3d e3 e3 ee bd 32 56 10 3d
       0.032480378 0.071660325 -0.1166456 0.035238452
000150 b6 4e ad 3d 56 ba 93 bd 9c 08 3c 3d fd 6d cc 3b
       0.084622785 -0.07213275 0.045906648 0.0062386976
000160 72 7a 7b 3c 3f 4c 0a 3e 8b 86 98 bc 4f 8e ff bd
       0.015349017 0.13505648 -0.018618843 -0.12478315
000170 fb a1 9e bd 3f d5 3b 3c 94 01 11 be c1 93 3a bc
       -0.07745739 0.011464416 -0.14160758 -0.011387766
000180 de 07 89 bc f5 2b 17 3e a4 9b 89 3d 0f df 63 3d
       -0.016727384 0.14762862 0.06719139 0.055632647
000190 00 3e a2 3d 67 7d 06 3e 95 65 fe bd c8 06 a0 3d
       0.07921982 0.13133775 -0.12421719 0.078137934
0001a0 27 11 f4 bd bf 8f b9 3d 17 4d fd 3d 73 3f 8d 3c
       -0.11917334 0.090606205 0.12368219 0.017242169
0001b0 e0 d8 b1 bd e4 1d 41 bd 75 60 3b 3d 0a ce f5 bd
       -0.08683944 -0.047147647 0.045746285 -0.120021895
0001c0 f9 7c 05 be 3d c5 d5 bd b5 46 07 be 58 14 80 bc
       -0.13035955 -0.10438011 -0.13210566 -0.0156347
0001d0 65 fd e7 bc 02 bc 28 3d de d4 25 bb b7 26 1c bd
       -0.02831907 0.041194923 -0.002530388 -0.03812286
0001e0 9f dc 10 3e 91 af 10 3e 00 e5 51 3d d3 27 0e be
       0.1414666 0.14129473 0.051243782 -0.13882379
0001f0 e2 22 38 bd de ba 01 be bf 83 55 bd 99 52 be 3c
       -0.04495514 -0.1266894 -0.052127596 0.023232745
000200 08 03 8c bd 8a bc 17 3e e2 36 c3 3d ac d5 00 be
       -0.06836516 0.14818016 0.095319524 -0.1258151
000210 8a 8e 10 be 60 93 89 3d bf 11 e4 3d 23 ae f5 3d
       -0.14116874 0.06717563 0.11136197 0.119961046
000220 0a 3c 63 bd fa 0f b3 bc 83 b2 cb 3a 3d 0b 17 3e
       -0.05547718 -0.021858204 0.0015540872 0.14750381
000230 2e aa 0b 3e 96 11 75 3d 53 d0 c0 3d 83 42 12 be
       0.13639137 0.059831224 0.09414735 -0.14283185
000240 0c 87 04 be 82 68 f2 bd c7 c8 0f be b7 1b bc bd
       -0.12942141 -0.118363395 -0.14041434 -0.09184974
000250 41 91 c7 bd c5 65 b4 bd 8d 49 eb bb 84 71 0a 3e
       -0.09744502 -0.088084735 -0.007180399 0.13519865
000260 71 d7 b4 3c f8 e9 2c bd 05 31 a9 bd 70 a9 5c 3d
       0.022075387 -0.042215317 -0.08261303 0.053872526
000270 aa 9a a4 3d ab 54 ca 3c ef bb 4c bd 53 73 54 3d
       0.08037312 0.024698576 -0.049983915 0.051867794
000280 09 71 33 3b 34 16 2e bc a9 71 7a 3b 58 3d 18 bd
       0.0027380607 -0.010625411 0.003821472 -0.037167877
000290 4b 26 9a 3d 13 eb 9e 3d 09 e6 11 be 80 df 94 bd
       0.07526835 0.077596806 -0.14247908 -0.07269192
0002a0 37 c9 64 3d 91 87 35 bc 13 83 ad 3d 66 42 8e 3d
       0.055855956 -0.011079685 0.08472266 0.06946258
0002b0 b8 ee df bc db ac f7 bc 53 06 2f bd 1d ce 30 be
       -0.02733551 -0.030233791 -0.04273064 -0.17266126
0002c0 ee d3 01 be cc 49 8c 3d 5e 34 b7 3d 02 36 e9 bd
       -0.12678501 0.06850013 0.08945535 -0.11387254
0002d0 8f ae db 3d 37 a4 93 3d 08 74 d8 3d db bb b0 3c
       0.10726654 0.07209056 0.10569006 0.021573951
0002e0 6d d2 d5 bc 59 d9 ed bd 20 cc be bd b5 77 d3 bd
       -0.026101315 -0.116137214 -0.093162775 -0.10325567
0002f0 4d db 66 bd 9f 56 10 bd a6 c2 63 3d e3 ae ec 3d
       -0.056361485 -0.03523886 0.055605553 0.115567945
000300 45 3e d7 bd 1d b4 ee 3d 15 0a 80 bc 4a ba 02 be
       -0.10509924 0.11655448 -0.015629807 -0.12766376
000310 a3 67 90 3d f8 df e0 3c d2 b2 02 3e 5c 0a 5a 3d
       0.07051017 0.027450547 0.12763527 0.053232536
000320 49 26 9c bd 19 93 3d bd aa 2e 28 3e 3c 3e 02 be
       -0.0762449 -0.04628286 0.16424051 -0.12719053
000330 c6 de fc 3d c2 9a bd 3c 72 d8 11 be e5 d8 16 3e
       0.12347178 0.023145083 -0.14242724 0.14731176
000340 fc cc 46 3d 01 eb f3 3d a3 5e 5c 3d b1 20 b2 bc
       0.048535332 0.11910058 0.05380119 -0.021744104
000350 16 17 44 bd 7b 65 aa 3d ac 0d bf 3d 56 5a ff 3d
       -0.04787358 0.08320137 0.093287796 0.12468402
000360 27 2e f4 bd 85 be 3f bc 33 d5 9e bd 9d 24 e2 3b
       -0.11922865 -0.011703138 -0.07755508 0.0069013373
000370 8b d1 34 3c 1a 19 e0 3d b7 70 d0 3d e5 94 0e 3e
       0.011036287 0.10942288 0.10177749 0.13923986
000380 89 44 b7 3d 84 45 00 be 11 f1 90 3d 4e 10 47 3d
       0.08948619 -0.12526518 0.0707723 0.048599534
000390 72 e5 46 3d 5a 33 c4 bd e2 09 e1 bd 80 db 83 bd
       0.04855866 -0.09580107 -0.10988213 -0.06438351
0003a0 93 4d de 3d db 4d 1a 3e 80 05 9c bc 83 c7 34 bd
       0.1085464 0.15068762 -0.019045591 -0.04413558
0003b0 b7 99 c3 bc f2 7d 9b 3a de 18 13 3e 6d e4 32 3d
       -0.023877008 0.0011863096 0.14364955 0.043674875
0003c0 1a af ad 3d 4e 36 cb bd dc 5a da bc 18 38 2c 3c
       0.084806636 -0.09922467 -0.026654653 0.010511421
0003d0 82 74 dd 3d 1d fb 0a bd 26 fa 1c 3d 40 02 94 bd
       0.10813238 -0.033930887 0.038324498 -0.07226992
0003e0 21 53 d8 3c 5f 27 e2 bd af ad c8 bd a1 93 54 bd
       0.026406826 -0.11042666 -0.097987525 -0.051898602
0003f0 24 cc a3 bb c9 71 63 3d a7 d0 01 3e e4 e7 98 bc
       -0.0049987007 0.055528436 0.12677251 -0.018665262

net.0.bias f4 [200]
000000 14 70 ec bc e2 75 fc bd 12 65 05 3d 9c 2e 70 bd
       -0.028862037 -0.12327172 0.03256709 -0.0586382
000010 15 ba 0d 3e 89 80 9e 3b bd 9d 8c bd 5d ee 4a 3d
       0.13840516 0.0048371 -0.06866024 0.049543727
000020 ea b3 b6 bd b9 78 eb 3c fe 8d 53 3e cc 66 d5 b9
       -0.08921035 0.028744088 0.20659634 -0.00040703116
000030 f4 d7 1c be 8e 4f 28 bd 15 b2 07 be d3 32 4e 3e
       -0.15316755 -0.041091494 -0.13251527 0.20136575
000040 26 49 02 3e 40 0c 0f be 46 9b e4 3c ea 1a 07 3e
       0.12723216 -0.13969517 0.027906071 0.1319386
000050 f1 a7 61 bd 42 ab 82 bd 4d 94 b6 3b 4b e7 11 be
       -0.055091802 -0.06380321 0.005571878 -0.14248388
000060 bc aa 81 bd 54 25 0d be 05 0a 60 3d 50 ee 79 bd
       -0.06331393 -0.13783771 0.054697055 -0.061018288
000070 6b d2 03 be 13 c8 4f 3c d7 5c 06 3c f6 e3 cf bc
       -0.12873237 0.012681979 0.008200846 -0.025377255
000080 ac 02 cf 3c f5 3e 1f 3e 05 5f 33 bd bc de b4 3b
       0.025269829 0.1555136 -0.04379179 0.005519716
000090 86 36 3a be 00 4a 0d 3e e0 7a 00 be f9 2f a1 3c
       -0.18184862 0.1379776 -0.12546873 0.019676195
0000a0 6d 35 02 be bb f7 ff 3b c3 b2 1d be 54 06 18 3e
       -0.12715693 0.007811514 -0.15400223 0.14846164
0000b0 d9 4d a8 bd 6b e3 78 3e be a6 45 3d eb 9a 2f 3d
       -0.08217973 0.24305503 0.04825472 0.04287235
0000c0 7b 3f b7 3d cf 0d 05 3d dd 64 2d 3c 18 c2 a4 3d
       0.08947655 0.032483872 0.01058313 0.08044833
0000d0 33 fd 89 bd d2 c6 52 bd af 2c a3 3d fb b3 7d 3c
       -0.06737747 -0.05145914 0.07967507 0.015484805
0000e0 44 c7 9c 3c 02 09 c4 bd 25 42 af 3d 83 a0 f0 bc
       0.019137986 -0.095720306 0.08557538 -0.029373413
0000f0 2f fe 05 3e af 01 9c bd 22 02 38 bd 4e d5 17 be
       0.13085245 -0.076175086 -0.04492391 -0.14827463
000100 dd f8 e5 3d bc 12 60 3d d9 71 50 be 7e 95 16 3e
       0.112291075 0.054705366 -0.2035593 0.14705464
000110 24 51 d5 3d c1 4d 00 3e 9d c2 a9 bd 0a 7c 32 bd
       0.10415867 0.12529661 -0.08289073 -0.043575324
000120 d9 75 a2 3b 86 3c a2 3c f2 65 ed 3d 50 b5 0c 3e
       0.004957896 0.01980425 0.1159171 0.1374104
000130 af a7 ff 3d 87 7f 46 bd 49 28 14 be dd 29 5e bd
       0.12483155 -0.048461463 -0.14468493 -0.054239143
000140 73 bd 0c bc 86 9b 09 3d 94 68 01 3e e5 44 10 3c
       -0.00859009 0.033595584 0.1263755 0.008805488
000150 4e 58 d9 bd f4 25 63 bd 99 74 64 bd 43 04 17 3e
       -0.10612546 -0.055456117 -0.05577526 0.1474772
000160 92 1c da bd be d1 0e be 2b ee a9 3c e4 ea 9a bd
       -0.106499806 -0.13947198 0.02074345 -0.07564333
000170 9a 42 c1 bd 72 fb 4e bd 04 cb b8 3c ca 72 14 be
       -0.09436531 -0.050532766 0.022557743 -0.14496914
000180 7a a1 85 3e 99 3f ef 3d 12 b7 ef 3d 98 b3 45 be
       0.2609976 0.11682052 0.1170484 -0.19306791
000190 5c 35 c3 bd 0e f5 8e 3a 7f 78 6b bd 37 51 7e 3c
       -0.09531662 0.0010906772 -0.05748796 0.015522293
0001a0 6b 61 10 be d1 61 1d 3e fb 89 9b bb b8 e6 9b bc
       -0.14099662 0.15369345 -0.004746673 -0.019030914
0001b0 bb 4f cc 3d d8 8a 5c 3e 5e 7f 0d 3d 3e 84 2e 3e
       0.09976145 0.2153734 0.034545295 0.17042634
0001c0 61 1a 4c be 0a b8 8c bd 41 78 d3 3b 59 6b bb bd
       -0.19931938 -0.0687104 0.0064535444 -0.09151334
0001d0 47 a4 31 3e 6b cf cd bd 76 af 2d be 42 c0 43 bc
       0.17347823 -0.100493275 -0.16961464 -0.011947693
0001e0 ef 88 21 3e 69 63 4d bc fa 6b 0b be 4f 07 f9 bd
       0.15774892 -0.012535908 -0.13615409 -0.12159597
0001f0 4d 97 2d 3d ba ea fc bd 7d 71 d2 3d e6 85 a8 3d
       0.04238062 -0.12349458 0.102755524 0.08228664
000200 48 ed ff bc c5 00 4b 3d 11 0c 21 3e b1 df 4b 3e
       -0.031241074 0.04956128 0.15727259 0.1990955
000210 9f 4d 8b 3c 1c ec 2f 3d 15 f9 d9 3d 8d 40 fe bb
       0.017004786 0.04294978 0.10643212 -0.00775916
000220 d2 97 d1 bd ae b4 86 bc 5f 83 00 be a3 f5 28 be
       -0.102340356 -0.016443577 -0.12550114 -0.16499953
000230 f0 58 5d 3e 1b 94 4b 3e e0 3e 69 bd a9 69 af bd
       0.21615958 0.19880717 -0.056944728 -0.08565075
000240 0f 53 e2 bc ca ea 6f be 88 fe b4 bd aa 8b 49 3e
       -0.027627496 -0.23429409 -0.088376105 0.19682184
000250 4f b5 4c 3d 0a 6a 20 be bc b3 28 3c 93 d7 0d be
       0.049977597 -0.1566545 0.010296758 -0.13851766
000260 f3 a8 92 bd b9 11 cf bc 11 89 91 3d 09 77 d5 3d
       -0.07161131 -0.025277006 0.071062215 0.10423095
000270 65 e9 46 bd 2a c8 63 3c 60 28 5e bd df 79 e2 bc
       -0.048562426 0.013902703 -0.054237723 -0.027646003
000280 71 46 cc bd df 52 8d bd cb a7 34 3a f2 48 34 3e
       -0.09974373 -0.06900572 0.0006891458 0.17605951
000290 2b 57 32 3e f1 38 f6 bd 5f 82 16 be 08 4d 89 3d
       0.17416064 -0.120225795 -0.1469817 0.06704146
0002a0 5f 68 15 3e b4 02 b0 bd 48 b1 60 be 8f ae bf bd
       0.14590596 -0.085942656 -0.21942627 -0.09359466
0002b0 89 69 39 3e 7a 1d 56 bd 6a e9 0a be 5d 79 e2 bd
       0.18106665 -0.052274205 -0.13565603 -0.110583045
0002c0 d8 4a 12 be a8 5f 9d 3d 22 08 dc bc 2b fe 83 bd
       -0.14286363 0.076842606 -0.026859347 -0.06444963
0002d0 5d 6d 25 be 71 15 c3 bc bd 98 15 be 2a 6d ee 3d
       -0.16155 -0.023813935 -0.14609046 0.11641915
0002e0 8e 23 4e bd f2 46 11 be 56 01 11 3e a7 85 02 be
       -0.050326876 -0.1418722 0.14160666 -0.12746297
0002f0 44 ef 43 3e af ad 42 be 69 50 88 3d d2 6a 52 bd
       0.19134241 -0.19011568 0.06655962 -0.051371403
000300 52 95 b9 bd e8 f0 5e 3e 63 02 9b bc 09 52 0a bd
       -0.09061684 0.21771586 -0.018922037 -0.03376964
000310 47 58 4e 3c 9b 25 93 bd 94 62 2f 3e 67 15 85 3d
       0.012594289 -0.07184907 0.17127448 0.06498223

net.2.weight f4 [100, 200]
000000 41 23 51 bd 07 06 8c 3d 31 2b 92 3c 06 07 32 3d
       -0.05105901 0.06837087 0.01784286 0.04346373
000010 ac b3 74 3d 97 5b d6 3c 0d 6f 30 3b 27 44 33 bd
       0.05974166 0.02616672 0.002692166 -0.043766167
000020 75 80 bf 3c 13 12 59 3d 12 0b 5d 3c 7a 24 8c bb
       0.023376683 0.052995753 0.013491409 -0.0042768093
000030 d4 72 2b 3d 0f 77 8d bc 78 79 f3 bc 4b f7 6e 3d
       0.041857556 -0.017268686 -0.029721007 0.058341306
000040 fe 48 35 3b c2 20 63 3c f2 0c a6 3d 44 0a a6 3d
       0.0027661915 0.013862791 0.08107938 0.08107427
000050 25 a1 b9 bc ec 98 4d 3c c4 f1 01 bc 59 f9 b5 3c
       -0.022659848 0.012548666 -0.007931177 0.022213625
000060 4b 72 95 3d aa 41 22 bd 92 fb 70 3c 40 5b e7 3c
       0.0729719 -0.039613403 0.014708417 0.028241754
000070 b3 1a f9 bc 0b 23 62 3b d7 d0 8c bd 9d 74 29 bc
       -0.030408239 0.003450575 -0.068757705 -0.010342744
000080 3f d7 1b bd 49 0e 48 bd a1 76 41 bd 00 da fb 3a
       -0.03804707 -0.04884175 -0.047232274 0.0019214749
000090 9f fc f8 3d fb 45 7b bd c2 ae 9a 3b cd 91 bc 3c
       0.12157559 -0.061346035 0.00472054 0.023018742
0000a0 01 19 89 bd 3f 2d 6a bb 22 8a 2f 3d ff b4 28 bd
       -0.06694222 -0.0035732535 0.042856343 -0.041188236
0000b0 01 ac 57 3d 51 b6 ef 3c 73 f8 8c bd d0 31 ee bc
       0.05265427 0.02926174 -0.068833254 -0.029076487
0000c0 85 5a 1f 3d c4 ec 87 3d 5a 19 0b bd 0c 77 5b 3d
       0.038904686 0.06636956 -0.033959724 0.05358033
0000d0 f9 58 54 3c 4a f5 81 bd 87 43 5f 3c 0b d2 7f 3d
       0.012960666 -0.06345613 0.01362694 0.062456172
0000e0 46 67 b9 b9 ae ed 28 bd 99 c8 e6 3c 29 c2 9a 3c
       -0.00035362894 -0.041242294 0.028171824 0.01889141
0000f0 cd a0 c2 bc b0 8d 4d 3d 6d 36 89 bd 6a 0c 3d 3d
       -0.023758316 0.05018395 -0.06699834 0.046154417
000100 ba ca 53 3d 25 3e 61 3d b7 e1 06 bd 11 5f 6d 3d
       0.051707007 0.054990906 -0.032930102 0.05795199
000110 09 72 53 bd 66 e4 78 3d eb 1e 5b bd 46 98 5f 3d
       -0.051622424 0.060764693 -0.053496283 0.05458858
000120 9b 73 16 3d cc 9f 46 3e fe 27 a6 3c 81 76 82 b8
       0.036731344 0.19396895 0.020282742 -6.220956e-05
000130 c5 6c b0 3d 50 f6 57 3c a8 c7 ea bb 3e 83 f7 bc
       0.08614496 0.013181284 -0.007164914 -0.030213948
000140 2a c0 63 bd a6 46 0d bd ea 1e ed 3c 34 84 b6 ba
       -0.055603184 -0.034491204 0.028945405 -0.0013924898
000150 eb e8 3c 3d a5 f9 4e 3d 16 d8 ff bc 83 ae 00 3d
       0.046120565 0.05053105 -0.031230967 0.031416427
000160 a6 4c 4f 3c 94 1f 99 bc 3b a5 c8 bc 3c 2e 27 3d
       0.012652552 -0.018691815 -0.02449285 0.040815577
000170 18 0d be 3d 52 b7 61 3c 5d 05 02 bd 9a dc 00 3d
       0.09279841 0.013776617 -0.031743396 0.031460382
000180 10 90 c5 3e 38 cd 38 3d bb 03 5b 3d 00 92 8b bd
       0.38586473 0.045117587 0.053470355 -0.06814957
000190 61 95 12 bd ec 82 0d 3c a5 30 5f bd 67 93 19 3d
       -0.03578699 0.008637171 -0.05448975 0.03749409
0001a0 74 e2 75 3d de 66 9c bc 6c 83 53 bd 17 74 ae 3b
       0.060030416 -0.01909202 -0.051639006 0.0053238976
0001b0 64 ff 1c bd 19 fb 85 3e 54 a0 93 bc 9a b5 9d 3d
       -0.038329497 0.26168135 -0.018020786 0.077006534
0001c0 77 38 d1 bd d1 31 6d bd 08 e8 48 3d ec e1 61 bc
       -0.10215848 -0.057908837 0.049049407 -0.013786774
0001d0 cb 05 38 bc 20 37 d1 bc b2 0c 35 3d 88 2a 93 bc
       -0.01123185 -0.025538981 0.04420156 -0.017964616
0001e0 5c dc ac 3d c0 93 57 3d 53 b6 b2 3c 76 b4 22 3d
       0.08440468 0.05263114 0.021815455 0.039722882
0001f0 15 f7 23 3d 35 eb 5a bc 53 3f 95 bd b2 68 43 3c
       0.040030558 -0.013361742 -0.07287469 0.011926817
000200 34 20 e0 3b 8e 4d 77 bd c6 62 e1 3c 0c 57 10 3e
       0.0068397764 -0.060376696 0.02751292 0.14095706
000210 43 7e e9 3b 08 87 42 bd 24 aa 62 3d d1 02 87 bb
       0.0071256473 -0.047492057 0.05533804 -0.004120209
000220 d1 ce 31 3d 46 32 8d bc e1 61 89 3d 62 97 1b 3e
       0.043410126 -0.017235886 0.06708122 0.15194467
000230 42 52 a4 b7 00 ac 95 3d 89 d4 73 bc 1e d5 40 3d
       -1.9588628e-05 0.07308197 -0.014882215 0.047078244
000240 31 ff 7f bc f0 89 b2 bc 01 b5 1e 3d 9f 8b a5 3d
       -0.015624807 -0.02179429 0.038746838 0.08083271
000250 c1 ff dd 3c b7 1e 8b 3d 70 7f 63 3b d4 40 7d bd
       0.027099492 0.06792968 0.003471341 -0.061829403
000260 9f 45 66 bc 05 3f cd bc 98 67 96 bc f8 10 e0 3b
       -0.014054685 -0.025054464 -0.018359944 0.0068379603
000270 75 95 01 3d 23 a9 28 3d 1f 11 29 bd 85 ab 38 3d
       0.031636674 0.041176926 -0.041276094 0.04508545
000280 bb 20 2c bd 93 33 db bb 41 a4 9b bb 99 b8 8b 3d
       -0.0420234 -0.0066894977 -0.004749805 0.068223186
000290 ff 3c 9b 3b 02 d4 38 bd 8f d4 89 bc 52 94 58 3d
       0.004737496 -0.04512406 -0.016824989 0.052875824
0002a0 85 bb cd 3d 45 d1 57 3d c2 5f 44 3c 4c 24 71 bd
       0.10045532 0.05268981 0.011985721 -0.058872506
0002b0 94 2d 35 3b 0c 79 e4 bc 00 8f c7 3c fc c6 54 3c
       0.0027645575 -0.02788975 0.02436018 0.012986895
0002c0 9d f5 1f bd 61 58 b9 bc cb 49 67 bd 17 a3 5c bc
       -0.039052594 -0.02262515 -0.05646686 -0.013466618
0002d0 b6 a7 53 bd eb fe a2 3c 67 9f 36 3d 4d d8 36 bc
       -0.051673613 0.019896945 0.04458561 -0.011159969
0002e0 96 18 04 3d 07 29 a7 bc f9 65 29 bd cd 90 a1 3b
       0.03225001 -0.020405306 -0.041357014 0.0049305917
0002f0 29 f3 00 3e 10 7c 14 bd 03 62 3c 3d e2 01 7c bd
       0.12592758 -0.036251128 0.04599191 -0.061525233
000300 1c 03 3a bd 0b a6 7f 3d c6 5c c2 bc f1 cb a4 bc
       -0.04541312 0.06241421 -0.023725878 -0.020116778
000310 e9 e6 60 3b d1 30 0d 3d 9d 83 bd 3d 90 7f 13 bd
       0.003431732 0.034470383 0.09253619 -0.036010325
000320 b2 57 1d 3d ce f7 64 3d 03 9f c0 3c 3e cf 0f bd
       0.03841371 0.055900387 0.023513323 -0.03510975
000330 17 68 29 3d ca cc 62 bc b3 37 1c bb 99 d6 99 3c
       0.041359033 -0.013842771 -0.002383691 0.018779086
000340 19 68 75 3d 13 19 c3 3c 24 14 82 bd 99 73 73 bd
       0.05991373 0.023815667 -0.06351498 -0.059436414
000350 0f 44 25 bd 31 6c 31 bd bc 38 0f 3d d0 5c b3 bc
       -0.04034811 -0.04331607 0.034966215 -0.021894842
000360 f1 a4 7a 3d 9d 5c 82 3b 60 60 e9 bb 3d 29 13 3d
       0.061192457 0.0039783255 -0.0071220845 0.035928
000370 26 98 5e 3c 8a 29 27 3a ba ae 37 3d 67 06 83 bd
       0.01358608 0.0006376734 0.044844367 -0.063977055
000380 1e f2 69 bd dd 41 8f 3d 89 85 30 3d 1c e6 3b 3c
       -0.057115667 0.06994984 0.0430961 0.011468437
000390 3d be af bb 38 47 09 bd 61 4c 2a 3d 5d ae ad 3c
       -0.0053632543 -0.033515185 0.041576747 0.021201307
0003a0 7b 12 46 3d 8b ef f6 bc 0f e5 23 bd 12 6b 84 3d
       0.048357468 -0.03014352 -0.04001337 0.064657345
0003b0 f9 2e 60 3d 4c ee 21 3d ad e1 49 3d 85 4b 4d 3d
       0.054732297 0.0395339 0.049287487 0.05012085
0003c0 51 2e 76 bd d0 8d 2c bc 69 55 8b 3d ae 0f 24 bd
       -0.060102765 -0.010531858 0.068034 -0.040054016
0003d0 69 cb 17 bc ad e1 78 bd a3 8c 35 bd cf 77 90 3b
       -0.009264805 -0.060762096 -0.044323575 0.0044088135
0003e0 10 5b 1b bd 6f 37 13 3d 87 d7 3f 3d 23 cd 69 bd
       -0.03792864 0.035941537 0.046836402 -0.0570804
0003f0 e5 92 ff 3c f0 be 56 3c 39 a3 33 3d 22 6c 25 3d
       0.031197974 0.0131070465 0.043856833 0.040386327

net.2.bias f4 [100]
000000 65 3c 16 3e 50 9d 3b bc 4f 6f ed bc 51 23 2d 3e
       0.14671476 -0.01145108 -0.02898374 0.16908003
000010 cc d4 02 3e 7a df 73 bd 66 fa f9 3d fa 8b 10 bd
       0.12776488 -0.059539296 0.12205963 -0.035289742
000020 48 44 16 bd 63 d2 f2 3d cc 24 1f bd c0 a1 1e bd
       -0.03668621 0.11856534 -0.03885345 -0.038728476
000030 79 b2 53 3c f1 a3 42 bc 52 05 60 bd 56 d5 87 3a
       0.012920969 -0.011879907 -0.054692574 0.0010363262
000040 7d 19 51 bd 18 34 33 bd 54 40 04 bd 3f 78 e6 3d
       -0.0510497 -0.043750852 -0.03228791 0.11253404
000050 46 62 c0 3d 0c 12 ae 3d 05 59 17 3e 6c bd 31 bd
       0.09393744 0.08499536 0.14780052 -0.043393537
000060 7b e2 0f 3e 0a 21 d8 3d 09 a7 37 bd e8 18 06 3b
       0.14051239 0.10553177 -0.04483703 0.0020461623
000070 6f 56 d6 3d 43 e8 92 bc d5 80 8d 3b 98 86 22 3e
       0.10465705 -0.017933017 0.0043183365 0.15871656
000080 a2 9a 1e bd 6d 70 dc bb dd 7d 39 bd ab cc 8c 3d
       -0.038721688 -0.0067272694 -0.04528605 0.06874975
000090 96 61 0d 3c 86 54 b2 bc 2b 0f 02 3e e1 44 8b bd
       0.008629223 -0.02176882 0.12701099 -0.06800247
0000a0 5e 8c 0f 3c c9 bf 2e 3d bd 18 1b 3e fe 53 1f 3e
       0.0087614935 0.04266337 0.15146156 0.15559384
0000b0 5c 94 2c 3d 7f c1 fd 3d 51 6f 80 3c 84 78 14 bd
       0.042133674 0.12390422 0.01567808 -0.036247745
0000c0 20 51 a3 bd ad 07 bd 3a d4 9f e3 3d 59 1b fa 3c
       -0.07974458 0.0014421843 0.11114469 0.030530619
0000d0 e8 15 fe 3b 34 ef e6 3d 46 3b 09 3e 54 85 8d bd
       0.0077540763 0.11276093 0.13401517 -0.06910196
0000e0 e9 23 dd bc ff 4d 68 3d 64 49 73 bd 15 9f 1a 3d
       -0.026994662 0.056715008 -0.059396163 0.03774937
0000f0 63 c6 24 bc 1e d0 2c bd 86 c9 37 3d 3e 45 f3 3c
       -0.010057065 -0.042190664 0.044869922 0.029696103
000100 dd 74 34 bd 9e 20 c4 3d b7 b3 8e bd 3e 50 da bc
       -0.044056762 0.09576534 -0.06967872 -0.02664959
000110 f9 dd cc 3c 4c c8 ab 3d e8 08 84 bc 5d 71 11 3e
       0.025008189 0.08387813 -0.016117528 0.14203401
000120 40 ae e3 3c 59 0e 2e 3d e5 ce dd 3b 53 67 7d 3c
       0.02779305 0.04249415 0.0067690485 0.015466529
000130 4e f6 38 bd 67 dc f0 3a 0c 57 81 bc 8b e1 22 3e
       -0.04515677 0.0018376232 -0.015788577 0.1590635
000140 7d 5b 36 bd e5 b4 98 3d b0 4e 2e 3d ff f3 af bc
       -0.044520844 0.07456378 0.04255551 -0.021478651
000150 26 07 fc bc 46 68 da 3d e1 11 ec bc ff 8e 79 3c
       -0.030765127 0.1066442 -0.02881712 0.015231847
000160 c0 a1 84 bd 51 26 56 bd 0b aa ca b8 22 16 4b 3d
       -0.06476164 -0.052282635 -9.6637836e-05 0.049581654
000170 a1 a2 d8 3d 16 a6 99 3b 99 95 40 3d e1 a5 11 bd
       0.10577894 0.0046889884 0.047017667 -0.035558585
000180 bd 68 e8 3d 77 18 23 3d fe 97 70 3c 19 d5 6e 3d
       0.11348102 0.039818253 0.014684675 0.058308695

net.4.weight f4 [72, 100]
000000 d3 60 8b 3e 1d 5a 85 bd d3 73 8d 3d f4 e9 5b 3e
       0.2722231 -0.06511328 0.06906857 0.21475965
000010 a8 92 7d 3d 0a e9 15 3d d5 69 77 3e e7 fc cf 3c
       0.06190744 0.036599196 0.24161465 0.025389148
000020 ed 17 00 bd a8 d9 77 3e 00 eb ca bd d9 c6 cc bc
       -0.031272817 0.24204123 -0.09908104 -0.024997162
000030 64 c2 b8 bd 0f 29 01 3d e0 03 99 bd 45 73 0e bd
       -0.09021452 0.031533297 -0.07471442 -0.0347779
000040 c0 18 13 3c e9 15 d7 bc 49 80 19 bd 7e df 20 3e
       0.008978069 -0.026255565 -0.037475858 0.15710256
000050 23 b0 90 3e 1a c9 96 3c e3 28 d3 3d 4a 66 ac 3d
       0.28259382 0.01840644 0.10310533 0.084179476
000060 4d d4 53 3e 0e bd 2f 3e b7 71 a4 bd f0 c5 b2 bd
       0.20686455 0.17161962 -0.08029502 -0.0872916
000070 a0 62 78 3e 2b 4a b5 3d dc 33 15 3c 3d ca 09 3e
       0.24256372 0.08852037 0.0091066025 0.13456054
000080 87 ad ae bd 93 e7 84 bd 00 83 ce 3b d6 c7 4e 3e
       -0.085291915 -0.06489482 0.0063022375 0.20193419
000090 07 f2 bc 3d 5c ef 9c bd 7d 10 74 3e 20 b6 8f bc
       0.092258506 -0.07662842 0.23834415 -0.017542899
0000a0 50 61 89 bd c6 e4 62 bd 29 94 16 3e 8c bf 23 3e
       -0.06708014 -0.055393957 0.14704956 0.15991038
0000b0 32 cd c5 bd 17 c0 2b 3e a3 eb 48 bd a6 1b ec 3b
       -0.096582785 0.16772495 -0.049052846 0.0072054444
0000c0 0b c9 55 3d 59 9a ad 3d 2d a4 39 3e 32 9d 72 3e
       0.052193683 0.08476705 0.18129034 0.23692778
0000d0 16 cd 4c bd f5 d1 74 3e f1 fb 76 3e 67 76 83 bc
       -0.050000273 0.23908217 0.24119546 -0.01604767
0000e0 08 3b c2 3d 7f 29 3a 3e 31 cb dd bc 66 d8 59 bd
       0.094839156 0.18179892 -0.027074428 -0.05318489
0000f0 00 8c 75 bb 16 cb f9 ba e9 58 40 bd 72 7f 0c 3e
       -0.003746748 -0.0019057717 -0.04695979 0.13720492
000100 c5 ab 58 3d bd 00 04 3e 9a 03 ee 3c dc b7 e7 3b
       0.052898187 0.12890907 0.029054452 0.0070714783
000110 92 f7 ab bd 3c 4c 0a 3e c0 b8 51 bd bf b6 86 bc
       -0.0839683 0.13505644 -0.051201582 -0.016444562
000120 ea cd b8 bd 6c f8 86 bd cf 68 6b bc bf c6 c9 3d
       -0.0902365 -0.065903515 -0.01436825 0.09852361
000130 b3 96 4d 3d 48 d9 3e 3c b5 21 48 3e 97 e1 2d 3e
       0.050192546 0.011648484 0.19544108 0.16980587
000140 a1 76 ec 3b 4d ee 0d bc af c6 22 3e 77 0a 1d bd
       0.00721629 -0.008662772 0.15896104 -0.03834006
000150 e8 30 95 3d 8c ae 84 3e 7c 86 47 bd 30 da 3d bd
       0.07284719 0.2591442 -0.04871224 -0.046350658
000160 d9 08 62 bd c3 6f 0a 3d 21 8f 8c bd 8b d3 2b bd
       -0.05518422 0.03379799 -0.06863237 -0.04194979
000170 23 db ea 3b 54 0e 25 3d 7b 60 2a bd 09 d6 01 3c
       0.0071672364 0.040296867 -0.041595917 0.007924565
000180 cf b0 ff 3d 14 9f b6 bd e9 5d 76 bd cb f0 81 3d
       0.124848954 -0.089170605 -0.060148153 0.06344756
000190 39 e7 04 bc ba e8 3d bd 9d 7e cc 3d 1f 53 3e bd
       -0.008111768 -0.046364523 0.09985087 -0.04646599
0001a0 f7 0a a7 bd 40 bb 98 3d d5 57 8b bc 5a 55 04 3c
       -0.08156388 0.0745759 -0.017009655 0.00807699
0001b0 1f 80 66 3d a0 08 49 bd 1b ec c5 bd 6c 91 cb 3d
       0.05627453 -0.04908049 -0.09664174 0.099398464
0001c0 3b 74 01 3d 85 f4 6c bd fa 01 a7 bc f1 25 aa 3d
       0.031604987 -0.05785038 -0.020386685 0.08308018
0001d0 d3 af 7d bd 72 3d 66 bd 53 9d 82 3d b6 48 84 bd
       -0.061935257 -0.056210943 0.063776635 -0.06459181
0001e0 74 93 cd 3d 22 5e 86 3d 3e 4d f0 bc 40 19 67 bc
       0.1003789 0.06560923 -0.029333707 -0.014105141
0001f0 d9 d5 4f 3d 55 7d a1 3c 80 23 df 3b bb c5 c3 3d
       0.05074105 0.019713083 0.006809652 0.095591985
000200 a4 99 b0 3d 36 ca 9a 3c 64 fc b1 3c 64 f6 56 3d
       0.086230546 0.01889525 0.021726795 0.05248107
000210 51 33 8d bd 9a 59 42 b8 fa a0 93 bd 4e 85 97 bd
       -0.068945535 -4.6336652e-05 -0.07208438 -0.07398473
000220 5a 04 92 bc df fb fe 3c aa 17 d4 3d 73 76 39 3d
       -0.01782434 0.03112596 0.10356076 0.045278978
000230 a2 15 61 bd 0d ab e2 3d ee 71 d2 bd 6f c2 a8 3d
       -0.05495227 0.110677816 -0.102756366 0.0824021
000240 d0 d0 76 3d af 78 fb 3c e7 ed f4 bb 8c 14 c6 bd
       0.060257733 0.030697195 -0.007474649 -0.09671888
000250 84 de ed 3c 07 9e 32 bd 8c 80 90 bd 92 7c 90 bc
       0.029036768 -0.043607738 -0.07055768 -0.017637525
000260 fb e0 ae 3d 7b 2e 6b bd 68 e3 32 3d fa 7f b0 3c
       0.08539005 -0.057417374 0.043673903 0.021545399
000270 90 ed 6c bd cf 46 48 bd 94 d4 24 bd 70 af c4 3d
       -0.057843745 -0.048895653 -0.040241793 0.096037745
000280 50 72 50 3d 76 fb 91 3c 54 35 52 bd 85 3a cf bc
       0.050890267 0.017820101 -0.05132039 -0.025296459
000290 60 5b ba bd e0 fa 4e bc 5f 49 a8 bd 03 d6 bb 3c
       -0.0909946 -0.012633055 -0.082171194 0.022929197
0002a0 a7 80 4d bd 69 b8 1b 3d 40 2f 58 bd 01 5b dc 3c
       -0.05017152 0.038017664 -0.052779436 0.026898863
0002b0 80 38 3e bc 18 8c e2 3d 9d 84 6c 3d 10 a8 0e bd
       -0.01161015 0.11061877 0.057743657 -0.034828246
0002c0 83 d7 02 3d 87 65 4b 3b 5a 74 02 3d f5 da 9f 3d
       0.03194381 0.0031035857 0.031849243 0.078054346
0002d0 47 92 5c 3d 1e e1 b1 bc c0 10 40 3b 1a 73 00 bc
       0.05385044 -0.02171379 0.0029306859 -0.007839942
0002e0 e7 9b 33 bd 34 5e e9 3c 44 78 a7 3d 67 26 1f 39
       -0.043849852 0.028487302 0.08177236 0.00015177728
0002f0 75 43 30 3c 5d ef 94 bd ff 87 a9 bd e7 3d 54 3c
       0.0107582705 -0.072722174 -0.08277892 0.012954212
000300 f9 70 85 bd 3e 23 a2 bc d2 da 96 3d d1 74 c3 bc
       -0.065156884 -0.019792195 0.073659554 -0.023859413
000310 f1 45 51 3b 99 8e 2f bc da df 2a 3d 49 cf b1 3d
       0.0031932557 -0.01071515 0.041717388 0.08682115
000320 a4 77 0a bd 85 5d 87 bd 9a f6 5c bd da 43 e9 3d
       -0.033805504 -0.06609634 -0.053946115 0.11389895
000330 75 21 3c bf 1a 9e 89 3c 4e b9 24 3d b2 5d ac bd
       -0.7348855 0.016799022 0.040215783 -0.084163085
000340 91 a7 91 3a 9c bf 3b 3e 73 af 94 bd df 9b 39 bc
       0.0011112561 0.18334812 -0.07260027 -0.0113286665
000350 64 b1 a5 3d 43 c0 3e bd 40 2a 5f bb f3 1c 63 bd
       0.08090475 -0.046570074 -0.0034052283 -0.05544753
000360 b8 9e cc bd 18 b3 b8 bd d1 41 36 bc 3a 3f c9 3d
       -0.09991211 -0.090185344 -0.01112409 0.09826513
000370 f7 f4 e3 3d 92 ea 0d be 06 c0 3d bc 9a f5 65 bc
       0.11130708 -0.13859013 -0.0115814265 -0.014035607
000380 f2 c6 07 3e 37 cd aa 3d cd a2 3f bb c5 e4 8b bd
       0.13259485 0.08339923 -0.0029241324 -0.06830744
000390 88 80 63 bd b4 25 44 bc 50 b4 75 3c b1 25 3f 3c
       -0.0555425 -0.01197188 0.014996603 0.011666701
0003a0 2e e9 75 3d 67 28 9f ba ed f8 f0 bc f6 81 21 3e
       0.06003683 -0.0012142778 -0.029415572 0.15772232
0003b0 4e 0a 41 3e 70 8f a8 bd fe a9 c3 3d b8 30 b8 3d
       0.18851587 -0.082304835 0.09553908 0.08993667
0003c0 e4 cb 96 3d 13 9c 5e 3d 05 ca 6a bd dd ba 0f b8
       0.07363108 0.054348063 -0.057321567 -3.4267887e-05
0003d0 33 28 86 3d 21 6c e0 3d cd 9f e6 bb 33 3a 2e 3d
       0.06550636 0.10958124 -0.0070380927 0.04253597
0003e0 a4 65 52 bc 87 ac 99 3d 8b ab eb 3d e7 f9 54 3e
       -0.012841616 0.0750361 0.115073286 0.20798455
0003f0 aa e7 0c 3d 8a 33 28 3e 5e 0d 3d 3e d8 74 c5 bd
       0.03440062 0.1642591 0.1846213 -0.09641427

net.4.bias f4 [72]
000000 21 24 84 3e eb 00 c2 3b 55 7a 2e bc b7 f2 0d 3d
       0.25808814 0.0059205196 -0.010649283 0.0346553
000010 76 4e 97 ba 32 1a 1a bd a0 bc ed ba b3 a1 27 3e
       -0.0011543769 -0.037622638 -0.001813788 0.16370277
000020 c7 97 3e 3d f6 8f 7a 3d db 54 0e 3c 1d ac e8 bc
       0.046531465 0.061172448 0.008687223 -0.028402383
000030 12 9d 0e 3d 9c f2 1d 3e df 29 23 bd d9 6e 39 3e
       0.034817763 0.1542458 -0.039834853 0.18108691
000040 a9 45 92 bd 9d ca 50 3e fc f6 95 bd 13 79 09 3e
       -0.07142193 0.20389791 -0.07322499 0.13425092
000050 5b f5 15 bc 42 dd 18 3e 3f ca 12 3d 18 ac 17 3e
       -0.009152736 0.14928153 0.03583741 0.14811742
000060 56 7b 9c bd e9 58 09 3e ca 96 a8 3c f8 1c 66 3e
       -0.07640712 0.13412823 0.020579714 0.22471988
000070 d7 ce 22 3d 5b 28 1e 3e 4b 78 8a bd 93 b2 55 3e
       0.03974804 0.15445082 -0.06761225 0.20868902
000080 50 95 d3 bc 05 e9 a4 3d e4 5d 29 3b 83 92 18 3e
       -0.025828034 0.080522574 0.0025843317 0.1489964
000090 df fd 06 3d bf cb de 3d 6f 70 02 3d d4 ab 63 3e
       0.032956954 0.10878705 0.031845506 0.22233516
0000a0 6f 30 a8 bd e0 52 fe 3d 1c d6 b3 bc 58 d1 b1 3d
       -0.08212363 0.12418151 -0.021952681 0.08682507
0000b0 93 e9 7d bc 71 0d fb 3d 5a 17 21 3d c9 05 9b 3d
       -0.015497583 0.12258423 0.03932891 0.07569463
0000c0 90 db 3f bd a6 96 df 3d 9a 0d 92 bd dd e1 b0 3d
       -0.04684025 0.10917406 -0.071315005 0.0863683
0000d0 f5 89 f9 bc 22 7a 43 3e ed be 47 3c 5a f8 60 3e
       -0.03046129 0.19089559 0.012191516 0.21969739
0000e0 ac 54 6e bd 04 db 3b 3e 42 6b c4 bc 6f f8 41 3e
       -0.05818622 0.18345267 -0.023976926 0.18942426
0000f0 f7 f8 8a bd a6 71 74 3e 44 25 7d bc 6b 38 55 3d
       -0.067857675 0.23871478 -0.015450779 0.052055757
000100 39 cd 1b bd 21 2d e0 3d 74 99 b6 bd 0f b7 65 3e
       -0.038037512 0.10946108 -0.089159876 0.22433113
000110 8f 6f b5 bd f7 f1 b6 3d 3c 8f e3 bd 87 fc 88 3d
       -0.08859169 0.0893287 -0.11111304 0.06688791
