trained_models/ffnn_pglib_opf_case14_ieee_best.pt (torch, 117493 bytes, 6 tensors)

net.0.weight f4 [200, 22]
00000000: ff08 c3bd 65f2 1ebe dfff 4c3c e809 223e
00000010: 48bb 59be 985a 77bd 11bf 41be c6f4 e4bc
00000020: 4de6 14be 2a30 463a ee1b ee3d 80aa 243c
00000030: 5264 2b3e 2a46 49be e970 acbc e2a8 96bc
00000040: 96ca 1e3c f22a 26bd e754 0dbe 8f25 89bd
00000050: 3a54 98bd 2fca e53d 9c5f 0d3b 35a3 743d
00000060: 564f 11be e795 debe f5af 843b de6e 78be
00000070: 3d5c df3d 3d06 a03d 65cd 10bd 8e99 8c3d
00000080: ebde 9dbd 9a83 2f3e 91b1 443e ed85 5dbd
00000090: 209a 00be 6f53 a33d b2cb 11be 61a1 c33d
000000a0: 225b 5b3d df67 863d 9e77 103e 3a95 adbd
000000b0: 191c 7e3e 0e9d b83d d514 e13d 57fa 1dbe
000000c0: 3f24 1b3e 0313 91bc 83ec 73ba f3e8 173e
000000d0: 19eb f83b 6fd9 053d de78 be3c be9f c7bd
000000e0: 9cf6 c63c 30c9 0e3e 6bd9 813e e49c 0cbe
000000f0: 4a84 85bd 7a9e cfbb 16ab 93bd 168b 58bc
00000100: 0109 09be 83f4 10be 3f0d ee3d 269a 0ebe
00000110: 71f3 403d 94e1 33be e43f 553e f8d1 28be
00000120: 5406 593e 7d80 1fbe 7ae2 3a3e 94f6 813d
00000130: 6dcf 0a3e 1f9e 26be a70f 803e b31b 0abe
00000140: 9a43 763e c180 28bd 83eb 873e 6ea0 16bd
00000150: 8741 7c3e a928 813e fc12 1a3e 712a 7e3e
00000160: 9115 213e f6ea 09be 3ef9 debb 2583 c23d
00000170: 808f 013e 430d 2f3e d873 0ebc a272 a3bd
00000180: 1175 b4bd 9412 823c 458c 1b3d a2ac 033e
00000190: 82c6 81bd 10e4 b7bd 4384 c2bd d7c8 48bd
000001a0: a97c edbd 33a7 f8bd c6ab 35be fa20 27be
000001b0: 74ad 6e3e 8ee7 bdbd 9130 16be a02d 2abe
000001c0: 3f22 2d3e 3b7f 0c3d a511 b9bd f397 4abe
000001d0: c2fc a73d 8095 75be 02af 19be ba18 f2bd
000001e0: 9463 babd 768c 103e afb1 1f3e 7c00 103e
000001f0: a66d 75bd 029f eb3c 1d12 063e f82b af3c
00000200: d712 6bbc d335 1fbb 076b a73d 5f20 14be
00000210: b3b6 acbd e2b2 3abe ea60 3bbe 8cac 4abe
00000220: b8c8 013d 6042 18be 413a 50bd 1376 f4bd
00000230: 988a f4bd 0e16 26be d906 24be 7364 593d
00000240: 0b2b 1f3e c73c c4bd bc00 173e f2ff e13d
00000250: a96c 44be 3333 2dbe 26b5 cabd f8ef 613c
00000260: fe6b d83c 7a92 263e dd79 ea3d 7306 1fbe
00000270: f4ac 843c 17ef 2e3e 72bf b33d 013c 533e
00000280: 57b1 17bd c6bd 0b3d 441e 35be 6689 20be
00000290: cbe0 2f3d 2c6c 0a3e 7345 583e a2fb fa3d
000002a0: da11 6ebd d04f ab3c e853 62bd 4913 323e
000002b0: 5e09 28be 16b4 56be 2c64 40be 954b 213e
000002c0: e397 5a3d 7a5d 063e 0d2a 4dbd 5d1b ebbc
000002d0: d761 5d3d 3702 e7bd 89f7 573e 11b1 4ebe
000002e0: 6071 d83c f443 16be d491 0abe 6313 2d3e
000002f0: 3ff2 cebb 1351 45be 7bac c0bd fad9 fcbd
00000300: f8a0 e43d a4e8 8b3d 3499 ecbd cf07 77bc
00000310: bec9 0f3c 012b 32be c0bd b0bd 4b1d 37be
00000320: 8e62 52bd d24d 353d 83cd 1ebe 5a88 38bd
00000330: ad83 acbd 01e4 013d 09bb 04bd fad1 8cbd
00000340: 3b88 993c 5be2 cf3d 8ea8 e8bc 6eac 20be
00000350: 88f5 97bd f5c4 4cbe 8921 0abe 885e 343e
00000360: 73d6 f3bc b228 54be 9464 0b3d b46a 1fbe
00000370: 32e3 11be 35c3 2f3e 1286 6f3d 521c 21be
00000380: 4344 36be 4603 6e3d 4b20 01be 293c 3ebb
00000390: c980 e03c f55f 0abe 26f5 253e 553e 093e
000003a0: bf9c 55be a522 1bbe c0a7 0cbe 3624 59be
000003b0: 749c 3d3e 7f0b 1abd 9186 0fbe f6da f8bd
000003c0: 71d5 d33d c30d 293e 40b6 483e 45b3 743e
000003d0: f4b3 01bc 3ae7 91bd 1044 0e3e d1a8 b63c
000003e0: 81d2 143d 3666 b0bc db8e d43d d1be 10bf
000003f0: 4dcb 263e 2eee 34be 2d27 133e 0ad3 7abe
-0.095232 -0.15522154 0.012512176 0.15824091 -0.21262848 -0.06038913 -0.18920542 -0.027948748
-0.14540978 0.00075602776 0.11626421 0.010050416 0.16737488 -0.19655672 -0.021049934 -0.018391076
0.009691855 -0.0405683 -0.13801919 -0.06696617 -0.0743794 0.11220204 0.002157188 0.05972596
-0.1419042 -0.4347374 0.004049296 -0.24261042 0.10906265 0.0781369 -0.03535213 0.06865226
-0.07708534 0.17140046 0.19208361 -0.0540828 -0.12558794 0.07974898 -0.1423786 0.09552265
0.053553708 0.065627806 0.1410813 -0.08475728 0.24815406 0.09014331 0.109903015 -0.15427528
0.15150546 -0.01770926 -0.00093049573 0.14834957 0.007596385 0.032678064 0.023250993 -0.09747265
0.024287514 0.13943934 0.2536119 -0.13731724 -0.06519373 -0.0063360306 -0.072103664 -0.013216754
-0.13382341 -0.14155774 0.1162362 -0.1392599 0.047107164 -0.1756652 0.20825154 -0.16486347
0.2119382 -0.15576358 0.18250456 0.06345859 0.13555689 -0.16271256 0.25011942 -0.13487129
0.24049225 -0.041138414 0.2654687 -0.03677409 0.24634372 0.25226334 0.15046304 0.24820878
0.15730883 -0.13468537 -0.0068046143 0.0949767 0.12652397 0.17094903 -0.0086946115 -0.07980849
-0.08811391 0.015878 0.03797557 0.12858823 -0.063366905 -0.08979046 -0.09497883 -0.04901966
-0.11596043 -0.12141266 -0.17741308 -0.16321173 0.23308355 -0.09272681 -0.14666964 -0.16618967
0.16907595 0.034301024 -0.090365686 -0.19784527 0.082025066 -0.23982811 -0.15008166 -0.118211225
-0.09101024 0.14116082 0.15595125 0.14062685 -0.059919022 0.028762344 0.13092847 0.02138327
-0.0143477535 -0.0024293556 0.08174711 -0.14465474 -0.084332846 -0.18232301 -0.18298689 -0.19792384
0.03168556 -0.1486907 -0.050836805 -0.11936583 -0.11940497 -0.1621935 -0.16018237 0.05307431
0.15543763 -0.09581905 0.14746374 0.11035146 -0.19182076 -0.16914062 -0.098978326 0.013790123
0.026418682 0.16266814 0.11449025 -0.15529804 0.016195752 0.17083393 0.0877675 0.20628358
-0.03703436 0.03411653 -0.17687327 -0.15677413 0.04293899 0.13517827 0.21120243 0.122550264
-0.058122493 0.020912081 -0.0552558 0.17390169 -0.16409823 -0.20967135 -0.18788213 0.15751489
0.053367507 0.13121596 -0.05008893 -0.028699571 0.054048385 -0.11279719 0.21090521 -0.20184733
0.026421249 -0.1467436 -0.13532192 0.16901927 -0.006315499 -0.19269209 -0.09407898 -0.12346263
0.11163515 0.06831482 -0.11552659 -0.015077545 0.008776126 -0.17399217 -0.08629942 -0.17882268
-0.05136352 0.04426367 -0.15508084 -0.04505191 -0.08423553 0.031711582 -0.032404933 -0.06875987
0.018741718 0.10150596 -0.028400686 -0.15690777 -0.07419878 -0.19997008 -0.13489355 0.17614186
-0.029765343 -0.20718649 0.034031466 -0.15568048 -0.14246824 0.1716431 0.05847747 -0.1573346
-0.17799477 0.05810859 -0.12609975 -0.0029027557 0.02740516 -0.13513167 0.16206798 0.13402684
-0.20860575 -0.15149935 -0.13735867 -0.2120522 0.18516713 -0.03760862 -0.14016177 -0.121511385
0.10343445 0.16509156 0.19600773 0.23896511 -0.007916439 -0.07124181 0.13893151 0.022297295
0.036333565 -0.021533113 0.1037881 -0.5654116 0.1628849 -0.17668983 0.14370413 -0.24494568

net.0.bias f4 [200]
00000000: 899b 333d 49ed 293e 3a2b 1c3d a0d3 80be
00000010: 5ef0 94bd f200 113e 8bdb cf3d b3cd bfbd
00000020: bf59 45be ac37 5e3e d32d 23be 7307 c9bd
00000030: 7442 23bd 3104 b6bd c5cc 34be fff4 573e
00000040: 80ee dd3d 91ed 8ebd 2706 f13d a2c8 59be
00000050: f5b8 833e 4ac4 25be 9c56 733e 25e3 2cbe
00000060: 4233 a53b b875 03be 4888 223e 93b1 473e
00000070: ee7b 13be ce00 dbbc 4e6c 2a3e 170a 3c3d
00000080: 477f 6c3e 6072 14be f725 33be 20cf 123d
00000090: a036 6cbe 951e 3b3d c477 c03d ec33 143e
000000a0: 571e e3bd 3f19 c53c 8481 34be b53a 1e3d
000000b0: 3da0 033e b43e a53e b3b6 38be d7d6 be3d
000000c0: 28c9 52be fe13 62bc b45d 303e 1ef6 31be
000000d0: c890 e5bc 6858 38bc 9f55 603e cf9c bbbd
000000e0: 4b35 973d 9478 61bc 1423 31be ce5f 45be
000000f0: 8ebc bf3c 5ebe cdbd e72b b53b 7a07 89bd
00000100: 5e52 a4bc f3b2 f2bd bec0 87bd 95ee 603e
00000110: 32bf 3b3e bc6f 523e 7e1e 28bc e750 6cbc
00000120: 47cd 82bd 94cf 853e 28fd 893c b19d 8f3d
00000130: 6013 d13d 98e6 4f3e 09e3 06be acbf 7d3e
00000140: af29 92bd 18d5 03be db7e d1bd ea5c c43d
00000150: 0fa8 6fbc d7e9 f5bd d669 a9bc 5c80 4fbe
00000160: 3a54 63bc add1 00be 3109 24be 0e8a 38be
00000170: 5907 23bd 138d 65bd 053d 34be 53a0 18be
00000180: dfb9 273e ac95 11bd 49b1 213e 8460 04bc
00000190: 266b 0d3e 8ae3 ccbb cb3d 073d 53dc 943d
000001a0: 8d28 4dbe d7b4 81bc 1e0c bcbd 054e 3bbe
000001b0: f947 33bd 2871 bbbd a709 a3bd 58c9 a0be
000001c0: b5e5 95bd 9f36 163e 02b6 873e aed4 64bd
000001d0: aedb 28be 96f7 3fbe 38db b9bd b0b6 163e
000001e0: 2015 3dbe bd06 043e 7885 36be 557b 3f3d
000001f0: c284 4abe 0dce d9bd 8d66 f03d 4283 f13c
00000200: e992 303e 8dd3 553e fbcf c4bd 17f2 413e
00000210: 0237 a0bd 43d2 89be 5333 0c3e 8711 67bc
00000220: bcec b53d 6a1b e7bd 4370 6c3e 8193 763d
00000230: 7751 17bd 8448 1fbe 424e 6f3d e896 bd3b
00000240: b51f 17be 7c39 f83d 5127 4a3e 4549 663e
00000250: 0690 debd 2be2 153e 9188 1abe 44d0 81be
00000260: f506 f93d 1e5b 693d f22c d0bd 9991 06be
00000270: e70d 46bc 7f45 333e faa4 1e3e 91c5 8ebe
00000280: 848f 7dbb 90a6 4cbe 11dd 22be c9d5 cd3d
00000290: 9bda e23d a0d2 1dbe 0e64 59be 3562 8f3e
000002a0: 0300 bb3d 9444 673e 56c6 dbbc b4a5 6e3e
000002b0: fdaf 253e 67c2 00bd e5fc 82bd ba84 4f3e
000002c0: f5fa dabd 1c76 ab3d 8bf1 30bd 970d 23bd
000002d0: abe5 3cbc 9bd5 45be 206d 52bc 566d ab3c
000002e0: ef29 1fbe b8bd dfbd 2ccb 2f3e 5186 a5bc
000002f0: 4efa b9bc f907 3a3e 79d6 943d 4f42 da3d
00000300: ebc1 88be 9981 51be 5515 35be ce4c 063e
00000310: b0b3 643c f4c0 2b3e 9d98 633c d12a 9eba
0.0438495 0.16594423 0.03812716 -0.25161457 -0.07272409 0.14160517 0.101492964 -0.09365406
-0.19272517 0.21700925 -0.1593545 -0.09815874 -0.039858297 -0.08887518 -0.17656238 0.21089552
0.10836506 -0.06978906 0.117687516 -0.21267942 0.2572705 -0.1618816 0.23763508 -0.16883524
0.005041511 -0.12837875 0.158723 0.19501333 -0.14402744 -0.026733782 0.16642877 0.04590806
0.23095427 -0.14496756 -0.17494951 0.03584206 -0.23067713 0.045683462 0.093978435 0.14472932
-0.11089771 0.02405989 -0.17627531 0.038630206 0.12854095 0.322744 -0.18038444 0.09318321
-0.20584548 -0.013798712 0.17223245 -0.17379043 -0.028023139 -0.011251546 0.21907662 -0.09160768
0.07383212 -0.013761658 -0.17298537 -0.19274828 0.02340534 -0.10046075 0.005528915 -0.06690879
-0.020058807 -0.11850538 -0.066285595 0.21966012 0.18334654 0.20550436 -0.010261176 -0.0144235855
-0.0638681 0.26134932 0.016844347 0.07012499 0.102087736 0.20302808 -0.13172545 0.24780148
-0.07136857 -0.12874258 -0.10229274 0.095880345 -0.014627471 -0.12007492 -0.02068035 -0.20263809
-0.013875062 -0.12579985 -0.16019131 -0.18021414 -0.03980193 -0.056042742 -0.17601402 -0.14904909
0.16379498 -0.03554313 0.15790285 -0.008079652 0.13810405 -0.0062527107 0.033017915 0.07268586
-0.20035 -0.015833301 -0.09181999 -0.18291481 -0.04376981 -0.09152442 -0.079608254 -0.31403613
-0.07319204 0.14669274 0.26506048 -0.05586689 -0.16490051 -0.1874679 -0.09075016 0.14718127
-0.1846509 0.12893195 -0.17824352 0.046748478 -0.19777206 -0.10635004 0.1173831 0.029481534
0.17243542 0.20881481 -0.096099816 0.18940006 -0.07822992 -0.2691823 0.13691454 -0.0141033
0.08883044 -0.11284526 0.230897 0.060199264 -0.036942925 -0.15555006 0.05842424 0.0057858117
-0.14758189 0.12120339 0.1974156 0.22488888 -0.10867314 0.14637057 -0.15091158 -0.25354207
0.1215953 0.05697166 -0.10164823 -0.13141479 -0.0120882755 0.1750698 0.15492621 -0.27885106
-0.0038690278 -0.19985414 -0.15904643 0.10050542 0.11076852 -0.15412378 -0.21229574 0.28004614
0.091308616 0.22584754 -0.026827972 0.23305398 0.16180415 -0.031435397 -0.06395892 0.20265475
-0.106923975 0.08372137 -0.043199103 -0.039807882 -0.0115293665 -0.19319765 -0.0128434 0.020926159
-0.1554334 -0.10924858 0.17167348 -0.020205649 -0.022702362 0.18167104 0.0726747 0.106571786
-0.26710448 -0.20459594 -0.17683919 0.13115236 0.013958856 0.16772825 0.013891366 -0.0012067204

net.2.weight f4 [100, 200]
00000000: 4f72 83bd 0bfd 093d c3fb fbbc a240 553d
00000010: d78d b6bc 05d9 6f3c db0f 303d a039 133d
00000020: 5516 8ebd 20ba 5a3d bd9b d1bc 519e 8abc
00000030: 35d6 723d 0a46 f03c 301a 8b3d 9dca 183d
00000040: 300d e33c 3839 d1bb 4890 463c 25e4 5c3c
00000050: 22c2 653b 7232 3ebd 1dc2 f43c 502c 143d
00000060: 9742 793c d656 40bd c34e 263d 1064 843d
00000070: c60a 19bc 37bc 4e3d 2c32 b7bc 1e9b 553d
00000080: a3c8 603d 7258 7fbd 547f 343d c9ae f1bb
00000090: 3ceb ae3c 3d04 84bd 0802 6f3d 0b67 81bd
000000a0: efbc 27bd a41a 20bd 98f2 dfbb 134e 233d
000000b0: 99aa 4ebd 10b2 d3bc 5b13 85bd 2943 7e3d
000000c0: 9187 f4bc c509 783c 3b52 c8bc cce1 a13c
000000d0: 2987 1c3d d3c5 973a d55b 45bd 4d9f 883d
000000e0: c485 c4bc 197a fbbc 360d 1abd b134 293c
000000f0: b92d 623c 41f0 2fbd 100e abbb 6e8b 1bbd
00000100: ba3d 3d3b e5f3 88bc 2a71 62bd aae2 4bbb
00000110: 981f 89bd c640 4a3d 5ec1 cebc af7b 16bd
00000120: bd42 d2bb cbff 113d 171d 42bd eed2 a53c
00000130: e64c 0cbd dca3 073c 15ca 0d3d 01fa 393d
00000140: c0c2 293c 26f0 0f3d f3a4 453d 00f4 2938
00000150: dc92 1ebc 3a79 173d 3e97 ccbc e0a6 5a3d
00000160: 610e c3bc 6192 713d aa9c 5ebd b8a7 2cbd
00000170: a75c 3f3d cfe3 f4ba b3a5 12bd 0910 c03c
00000180: 619b 38bd 197d 4bbd 3370 45bd fd2f 13bd
00000190: c019 1dbd 5e0d 36bd 0fb3 6cbd 2fde 583d
000001a0: 1a86 c63c be32 233d cd3a 31ba 1a78 87bd
000001b0: 2bc7 ab3c d5ee 653d 0a50 913a 8d99 6a3b
000001c0: 279e 65bd 2630 ca3c 95a5 53bd 1a0c 573d
000001d0: bd7e ce3a 95ba 3dbd 25b2 513d cc86 e83c
000001e0: 93f4 13bd 9b27 9b3a 2cdb 06bd 18f6 29bd
000001f0: 1468 8e3d 4f9d 323d 69a0 3ebb 2c5a 273d
00000200: 70d5 1c3d aa5c 84bd c1d0 f03c 4fc9 e93b
00000210: 9eb1 f83c f1a0 523d 4539 84bd 1c9d 8dbd
00000220: f30e eb3c f554 04bc 4541 4bbd e5c5 6ebd
00000230: dbce 013d 11eb 033d 5c91 053d 20a8 22bd
00000240: f8a0 b4bc a39e 113c c091 44bc f5b7 2bbd
00000250: 4ae3 7b3d 0698 e93c e674 86bc ff51 ef3b
00000260: 06fc 9ebc 1be7 68bd ca21 2ebd 22a2 35bd
00000270: 26bd 5a3d 1ebd 203d b275 68bd d8d9 d4bc
00000280: 296b 4f3d 5e46 edbc 93d1 1cbd f503 dcbc
00000290: 25ce 253d eb45 96bc 7e30 8abd 72ed 423c
000002a0: 58f0 91bc dfaa 4dbd 6686 d53c d6a0 54bc
000002b0: 3257 ed3c 57cd bfbc 9413 41bc 9143 c03c
000002c0: 2b1c 723d 82c2 983c 1a97 383a 75df 14bd
000002d0: 1770 323c 2c6f 72bd a697 433a edbb 143d
000002e0: e272 8dbd 6a37 54bd f5cb 18bd 8844 6b3a
000002f0: 1520 8e3d b341 00bd 856d 5c3d cf2b 343d
00000300: 6722 20bd ad7f e4bc f1d8 2cbd bc45 5b3d
00000310: db72 47bd acba 90bd ce80 513d ef62 21bd
00000320: b28f 78bb f424 47bc 6f4b 84bd a47a 2a3d
00000330: 2750 77bc bcac 653d 3d61 55bc 1719 53bd
00000340: a8a8 77bd c2b3 15bd 1b70 cc3c d5f2 c1bc
00000350: 717e 2bbd 57e2 9ebc e8d7 37bd ba88 303d
00000360: dc09 11bc c6a2 463d 1430 9ebb ca43 5e3d
00000370: a41a cdbb 0543 6a3d 8a40 39bd ba5a 083d
00000380: 67cc 863c 7bcc 363d b2ff 80bd 84e8 84bd
00000390: 0404 7e3c 0918 823d 303f 263d 6eb0 a4bc
000003a0: 7d06 cfbc 3ebf ddbb 7a51 44bb f0b7 c2bc
000003b0: ec2b c1bc 6f83 37bc 3bab a6bc 0149 3cbd
000003c0: 467d 4d3d d2d7 f43c b7bb a7bc 8377 a03a
000003d0: 0369 833c 511e 043d 4911 8e3d cbe7 5d3c
000003e0: 1d0c 333d d1d2 35bd e724 413c 5969 72bd
000003f0: 0657 5e3d f4ac 553d 4d2e 33ba f7da e2bc
-0.06418287 0.033688586 -0.030759698 0.05206359 -0.022284431 0.014639144 0.04298387 0.035943627
-0.06937853 0.05340016 -0.025586957 -0.016921194 0.059286315 0.029330272 0.06792104 0.037302602
0.02771625 -0.006384995 0.01211936 0.013482128 0.003505834 -0.046434827 0.029877717 0.036175072
0.01521363 -0.046957813 0.040602457 0.06464398 -0.0093409475 0.050472464 -0.022362791 0.052149884
0.054878842 -0.062340207 0.044066742 -0.0073755723 0.021352403 -0.06446121 0.058351547 -0.06318482
-0.040951665 -0.039087906 -0.0068343394 0.03986938 -0.050455663 -0.025841743 -0.064978324 0.062075768
-0.0298498 0.015139048 -0.024453273 0.019760989 0.038214836 0.0011579342 -0.04818328 0.06671009
-0.023989566 -0.03069787 -0.037610255 0.010327504 0.013804846 -0.042953733 -0.0052201822 -0.037974767
0.0028875903 -0.01671786 -0.055283703 -0.0031110444 -0.06695479 0.04937818 -0.025238689 -0.036739048
-0.006416647 0.035644334 -0.047391023 0.02024218 -0.034253024 0.008278813 0.03461655 0.045404438
0.010361373 0.035141133 0.04825301 4.0519983e-05 -0.009678569 0.036980845 -0.024974462 0.0533818
-0.023810567 0.05897749 -0.054348625 -0.042152137 0.04671922 -0.0018683615 -0.035802554 0.023445146
-0.045070056 -0.04967985 -0.048202705 -0.035934437 -0.038354635 -0.04444634 -0.05778795 0.052946266
0.024233866 0.039843313 -0.0006760776 -0.066147044 0.020968994 0.05613597 0.0011086476 0.003579709
-0.05605903 0.024681162 -0.051671583 0.052501775 0.0015754324 -0.046320517 0.051195282 0.028384589
-0.036121916 0.0011837365 -0.032923862 -0.04149446 0.06953445 0.043607052 -0.002908731 0.04085748
0.038289487 -0.06462987 0.029396417 0.0071345936 0.030358132 0.051423017 -0.06456236 -0.06914732
0.028693652 -0.008076896 -0.049622793 -0.058294196 0.031691413 0.0322066 0.03260933 -0.039711118
-0.022049412 0.00888792 -0.01199764 -0.041923482 0.061496057 0.028514873 -0.016413163 0.007303476
-0.019407284 -0.056861024 -0.042512693 -0.044344075 0.053403042 0.039242856 -0.056752868 -0.025982782
0.050639305 -0.028964218 -0.038285803 -0.026857356 0.040479798 -0.018343886 -0.067475304 0.011897432
-0.0178148 -0.050211783 0.026065063 -0.012977799 0.028972242 -0.023413343 -0.011784453 0.023469718
0.059108894 0.018647436 0.0007041559 -0.036345918 0.010890982 -0.059188053 0.0007461257 0.036312032
-0.06906678 -0.05181066 -0.037303884 0.00089747505 0.06939713 -0.031312656 0.053815383 0.04398709
-0.03909531 -0.027892912 -0.04219908 0.0535333 -0.04869352 -0.07066855 0.05114823 -0.03940099
-0.0037927446 -0.012154806 -0.064597 0.041620865 -0.015094793 0.056072935 -0.013023672 -0.0515376
-0.060463578 -0.036548384 0.0249558 -0.023675362 -0.04186863 -0.019395037 -0.04488364 0.043099143
-0.008852448 0.048495077 -0.0048275087 0.054263867 -0.0062592793 0.05719282 -0.045227565 0.03328965
0.016454889 0.0446286 -0.0629877 -0.06489661 0.015503887 0.063522406 0.040587604 -0.02010366
-0.025271649 -0.0067671826 -0.002995579 -0.023769349 -0.023580514 -0.01120077 -0.02034532 -0.04596806
0.0501683 0.029888067 -0.020475252 0.0012242649 0.016041284 0.032255474 0.06936891 0.013544033
0.043712724 -0.044390503 0.011788583 -0.0591825 0.05428221 0.052166894 -0.00068352075 -0.027692301

net.2.bias f4 [100]
00000000: e3cb 76bd 9530 c03c 876b 153c 2a88 8c3c
00000010: b097 813d 201f b23c 789f 8b3d 6bc5 08bd
00000020: e569 d83c b93b 5bbd 10ae d9bc 7bc1 11bc
00000030: f34b 5dbd ef00 7a3d 7d02 dabc d48a 683d
00000040: 88b0 e9bb 3108 4f3d 7608 8dbd 51c7 b1bb
00000050: 74e5 8e3d 691a 013d 5645 eabc 754a 4ebd
00000060: db59 653d d272 6bbd 48e1 f83c 6e3b 90bd
00000070: 5db6 3a3c 7a1e 47bc 4512 143d 57dd 32bd
00000080: 6597 f93d 9b94 f43d e6cd 64ba 83b5 3dbc
00000090: 40d7 a93c c29f ae3d 190f 8fbd 8ca6 febc
000000a0: d6b6 bf3d a337 2d3d 2e09 95bd 671e 053e
000000b0: f4f5 68bd d033 a13b faca 913c 6885 4abd
000000c0: 7e03 4a3d 6de5 c93c efce 5cbb 126f ec3b
000000d0: 5253 d03d 2f44 c3bb 652a 66bd d7df f83d
000000e0: 4d39 f13d f437 af3d a8a0 e3bc b334 623c
000000f0: 2a89 283d 1141 ac3d 82ce ba3d 9efb 233d
00000100: 53fd 473d 4b05 113e 0a72 96bc 1151 53bd
00000110: 7489 0ebd 24ad d03c 35e1 ab3c 7d8e c43b
00000120: fddc 2cbd fa45 e03c fcf9 d2bc 6fc9 3abd
00000130: 1611 603d ac91 10bd 06fd 33bc c8a4 033e
00000140: 4834 613d 83b7 a3bb 3fdf 073d ffc6 243d
00000150: 3cc8 fabc 0e8f 03bb a053 ce3c 674f 743c
00000160: 8a91 583b 9a0d 88bd aa7a 013c a851 d53c
00000170: f94c ff3d bc1c 163d 4bc6 153d 3117 473d
00000180: 5585 01bb 20e2 333d f11e 0abc 42d9 193e
-0.060253035 0.023460666 0.009119875 0.017154772 0.0632776 0.021743357 0.068175256 -0.033391397
0.026417682 -0.053523753 -0.026572257 -0.008896227 -0.05402751 0.061036047 -0.026612515 0.05677302
-0.00713164 0.05054492 -0.068863794 -0.0054253717 0.069773585 0.031519327 -0.028597515 -0.050363977
0.055993896 -0.057482548 0.03038086 -0.07042585 0.011396018 -0.012153262 0.036150236 -0.043668117
0.12187079 0.11942407 -0.0008728191 -0.01157892 0.020732522 0.08526565 -0.069853015 -0.031085275
0.09361045 0.042289387 -0.072771415 0.12999879 -0.056875184 0.0049195066 0.017796982 -0.049443632
0.049319737 0.024645532 -0.0033692678 0.007215389 0.10172142 -0.005959056 -0.056192774 0.12152069
0.117785074 0.08555594 -0.027786568 0.01380651 0.041146435 0.08410848 0.091214195 0.040034883
0.048825573 0.14162175 -0.018364925 -0.051590983 -0.034799054 0.025473185 0.02098141 0.0059984312
-0.04220294 0.027377117 -0.025753967 -0.04560226 0.054703794 -0.035295174 -0.010985618 0.12855828
0.0549815 -0.0049962415 0.03317189 0.04022884 -0.030613057 -0.002007428 0.02518636 0.014911509
0.0033045732 -0.06643219 0.007902781 0.026039913 0.12465853 0.036648497 0.03656606 0.0486061
-0.001976331 0.04391682 -0.008430229 0.15024284

net.4.weight f4 [38, 100]
00000000: 9a7f ddbc 9dbc 5abd 9bb6 1b3c a007 7f3d
00000010: d0ea 8c3e ae5a cdbc 470a 09bd 573c 4bbd
00000020: 0f64 08bd 60ac e53c 2a17 50bd 3f84 cabc
00000030: a3a8 93bd 0b3e 2a3e 60d9 dbbc 6ad3 75bd
00000040: 693a 333e 67df 86bd b7d6 57bd 6e5b 9abd
00000050: a41e 18be e83b a0bd adfe 073d 8dab 4cbd
00000060: ba84 9c3d 55f1 b3bd 2ccf ba3d 400d 25bc
00000070: 2218 d93c fdea 4d3d 86e4 923d 4030 a8bc
00000080: 4712 393e bcee 973e e0ad abbd e84b a93d
00000090: a187 8dbd 3c69 383e 9dce a0bd 12c8 87bd
000000a0: 9494 813e 848b 1cbd 1b14 c33d 3122 74bd
000000b0: 0d2d 543d e7a7 ec3b 4868 a3bb 9796 9fbd
000000c0: 6efc 8dbd 00b4 b83b 9842 813e 50bf bebd
000000d0: 620e 8abd 9e58 f33d 9a2c 75bd 8471 8e3e
000000e0: f27b 853e b0fa 973e 355d a93d 4821 cdbb
000000f0: 8d6b a63d ed3f eebd 18de 093d a5a3 bbbd
00000100: b22b 18bd 113f 023e 422a 90bd 00c6 93bd
00000110: a126 033e 1a4d 193d abc8 91bd 718e a13a
00000120: 933a a13c aeba 18bd b310 aa3c f88a ad3d
00000130: 078f cbbc 77d8 c4bd b0e7 553d aef0 843e
00000140: c3b5 a2bc 4157 dcba 999d 76bd 1784 653e
00000150: 751f c1ba 8116 8e3d 5401 87bd b32d 6abd
00000160: 3c2a f4bc b30a dbbc 40e9 e4bc 031e 53bd
00000170: 5e3c 463e c623 4ebd cde5 bb3b 3fca 623d
00000180: 6e97 6a3e a062 77bd 2bff 60bd 143c 3c3e
00000190: c563 83bd bd8a b73d 87f8 93bd 5b7a a3bd
000001a0: c32c 8f3b 6ed3 a33d 1c7e 21bb e73d 78bd
000001b0: a94a 163d 0723 583d 6731 2fbb d91c dc3c
000001c0: 7a6a f13c 35cb 953d 6e9e 7cbd b5ff 803d
000001d0: cc85 2c3d fac9 2c3d 0637 b03c 4e00 163d
000001e0: 338f 613d 822b a33d ea39 853d 5b71 d8bc
000001f0: c5a4 a7bd 9a3d f63b f862 8f3d 6787 9e3b
00000200: 74bb 08bd ab19 fcbb a961 ad3d caae 473d
00000210: ce0a 46bc 445d 703c 0f19 bbbd b3fa 613d
00000220: cb16 623d 422f d03d 472e 8dbc 3251 c33d
00000230: ad0c a0bd 551e 773c 71cb 50ba 0704 0dbd
00000240: c3d9 60bd 1a00 5bbd 771c aabd e3b7 08bd
00000250: a5f5 643d a752 703c e624 a3bc ddf8 23bd
00000260: 8fc9 debd c05d 8abd 5935 023d 1bd6 7e3c
00000270: 0ec6 a6bc 619b 453c 277f f33c c2ea 9dbb
00000280: 4897 c73d dea8 e3bd 8c63 e8bc 7f87 a9bd
00000290: 85e3 c63c 0138 23bd 6220 9c3d 57d4 483d
000002a0: 79b7 9e3c a7cd 2d3d db3f c13d b1c6 d7bc
000002b0: fa34 c63d 88f7 403d c0b4 63bc f0bb 07bd
000002c0: 0553 d4bd 3c06 b23d ad04 06bd 66b1 1d3c
000002d0: 07ce 5e3d c744 923b dea6 71bb 887d 423d
000002e0: 407e 4a3d 2c02 fdbc 2082 06bc 06d1 9b3c
000002f0: 2b50 b13c c052 873c e4ce cdbc d72f a0bd
00000300: f644 a73d 28a6 15bd cd70 cbbb 33d2 873d
00000310: eeba d7bc 84ac c53d 143f 9e3c 82e4 74bd
00000320: b8de bcbd 1a8a a83c 80dd e3bb 330e 70bc
00000330: ed04 693d 0abd c4bb 6f2e fc3c 5393 8cbc
00000340: feb2 693d e79f ebbc 67d8 063b 2066 9bbd
00000350: 9d25 bdbd 4d07 6ebd 6a9a 89bd ad4d 903d
00000360: 5b04 e4bc 27a3 903d c02b 9d3d af35 3cbd
00000370: 9a7a a43b 6a3e 15bd af25 aabd 66cb d7bb
00000380: 5a1f fcbc 6063 53bd b3a0 6a3d a325 22bd
00000390: 8d37 f3bb c7cc 3fbd 17f7 b83d 2a26 a5bd
000003a0: 527f aa3d 8b8c 5abd 33a1 743b ed75 5e3d
000003b0: 2fa0 ba3d ae99 d5bc ba12 9b3d f3e5 bebc
000003c0: 94c4 e93c e180 f8bc f101 c9bd 452f 9fbb
000003d0: 4069 3b3d 1afa aebc 4b08 a73d 7a8a aa3d
000003e0: 1e88 36bb 7f30 a43d a73a 9bbd 80f2 07bc
000003f0: 4af1 96bd 079b 4c3d ada3 85bc 337a 7abd
-0.027038384 -0.053402532 0.009503986 0.06226313 0.27522898 -0.025067654 -0.033457067 -0.04961809
-0.03329855 0.028036296 -0.05080334 -0.024721263 -0.07209899 0.1662523 -0.02683705 -0.060016073
0.1750275 -0.06585579 -0.052695002 -0.0753697 -0.14855438 -0.07823926 0.033201862 -0.04996829
0.07642503 -0.08786265 0.09121546 -0.01007396 0.026500765 0.05027293 0.07172494 -0.02053082
0.18073379 0.29674327 -0.083827734 0.08266431 -0.06910635 0.18008894 -0.07851908 -0.06629957
0.2530867 -0.03821899 0.09525319 -0.05960292 0.051800776 0.007222164 -0.0049867965 -0.077923946
-0.06932913 0.005636692 0.2524612 -0.09313834 -0.067410246 0.11882137 -0.05985699 0.2782098
0.26071125 0.29683447 0.08269731 -0.006260071 0.081259824 -0.116332866 0.03365907 -0.09162072
-0.037151046 0.1271937 -0.0703931 -0.072155 0.12807705 0.037427045 -0.071183525 0.0012325776
0.01968125 -0.037287407 0.020759916 0.08473772 -0.024848474 -0.096116 0.052222908 0.25964874
-0.019862061 -0.0016810672 -0.06020889 0.2241367 -0.0014734106 0.06937886 -0.0659205 -0.05717249
-0.029805295 -0.0267385 -0.027943254 -0.051542293 0.19358966 -0.050327085 0.0057341815 0.05536866
0.22909328 -0.06039679 -0.054930847 0.18382293 -0.06415514 0.08962009 -0.07225137 -0.07982322
0.0043693497 0.079993114 -0.0024641817 -0.06060591 0.036692295 0.05276778 -0.0026732327 0.026869224
0.029469717 0.07314149 -0.061674528 0.06298772 0.042119786 0.042184807 0.021510612 0.036621384
0.055068206 0.07967283 0.06505187 -0.02642124 -0.08185724 0.0075146677 0.07001299 0.0048379186
-0.033381894 -0.0076934895 0.08465893 0.048750676 -0.012087537 0.014670674 -0.09135639 0.055170726
0.05519752 0.10165264 -0.01723398 0.09536971 -0.07814918 0.015082915 -0.00079648854 -0.03442767
-0.054895174 -0.053466894 -0.083062105 -0.033378493 0.055898327 0.014668143 -0.019915055 -0.040032256
-0.10878288 -0.06756163 0.031789158 0.015553976 -0.020358112 0.012060971 0.029723717 -0.004819245
0.097456515 -0.11116193 -0.02836778 -0.08277797 0.024278412 -0.03984833 0.07623364 0.049030628
0.019374596 0.042432453 0.094360076 -0.02633986 0.09678073 0.047111064 -0.013898075 -0.033138216
-0.10367397 0.08692595 -0.032719303 0.009624815 0.0543957 0.0044637653 -0.0036873142 0.047482997
0.049436808 -0.030884825 -0.008209735 0.019020569 0.021644672 0.01651895 -0.025123067 -0.07821625
0.0816745 -0.036535412 -0.0062085153 0.06631889 -0.026334252 0.09652045 0.019317187 -0.059788235
-0.09222168 0.020573664 -0.006953895 -0.014651823 0.056889463 -0.0060039805 0.03078386 -0.017160093
0.057055466 -0.02876277 0.0020575763 -0.07587838 -0.0923569 -0.05811243 -0.06718905 0.070460655
-0.027834108 0.07062369 0.0767436 -0.045949634 0.005019498 -0.036436476 -0.08307969 -0.0065855263
-0.030776668 -0.051608443 0.05728216 -0.039586674 -0.0074223937 -0.04682615 0.09031504 -0.0806392
0.08325066 -0.05335669 0.0037327528 0.05431168 0.09112584 -0.026074257 0.07571931 -0.023303008
0.028536119 -0.030334892 -0.098148234 -0.00485793 0.04575467 -0.021359492 0.08155879 0.083271936
-0.0027852128 0.080170624 -0.075795464 -0.008297563 -0.07370241 0.049952533 -0.016313398 -0.061151695

net.4.bias f4 [38]
00000000: 6b9c 173e 1708 733c dcb4 54bb b37d 873d
00000010: 4e2d 883d 406c 983d 2610 44bd 3738 12bd
00000020: 7bca 15bd 37f1 613d 33ad b93c 005f a83d
00000030: 4ea8 c6bb 000a 223e 9632 cebc 96e7 013e
00000040: 5c34 4abd 7c72 663e 6a00 b9ba 017b 163e
00000050: 1595 16bc 6f93 013e 6711 77bd 31d1 e83d
00000060: b105 b6bc 7199 a33d e802 423c d8e0 193e
00000070: bfc3 a93c c8f5 cc3d db5f 3dbd b093 473e
00000080: 781b 24bd a18d c63d bc6f 32bd 4007 223e
00000090: 0981 bebd 641b 003e
0.14805762 0.014833472 -0.0032456433 0.06615772 0.06649266 0.07442522 -0.047866963 -0.035698142
-0.036570054 0.05516168 0.022665596 0.08221245 -0.006062544 0.15824127 -0.025170606 0.12686
-0.04936634 0.2250461 -0.0014114503 0.1469536 -0.009190817 0.12653898 -0.06031933 0.11368025
-0.02221951 0.07988251 0.011841513 0.15027177 0.020723222 0.100078166 -0.046233993 0.19489932
-0.04006526 0.09694982 -0.04356359 0.15823078 -0.09301955 0.12510449
